OpenAI/MountainCarContinuous-v0/checkpoint_critic.pth (torch_old, 3148 bytes, 9 tensors)

fc1.weight f4 [20, 2]
0	0x3e3bb3b8	0.18330276
1	0xbe8e8b8d	-0.27840844
2	0xbe27ed7d	-0.16399188
3	0xbfbc4b1f	-1.4710425
4	0xbdd955b4	-0.1061205
5	0x3ec2d9ef	0.38056895
6	0x3e792dd0	0.24333882
7	0xbef9bea9	-0.48778275
8	0x3e531ea7	0.20617162
9	0x3f8c6816	1.0969265
10	0xbe4a5dbe	-0.19762322
11	0x3ece287d	0.40265265
12	0x3f1bfb65	0.6093047
13	0xbe8a8f76	-0.27062577
14	0x3d8432c2	0.06454994
15	0xbf613cd7	-0.8798346
16	0x3e80f310	0.25185442
17	0x3f0518d6	0.5199102
18	0xbe3346ae	-0.17507431
19	0xbf962b40	-1.1731949
20	0xbe5e4843	-0.21707253
21	0x3fa905c1	1.3204881
22	0xbdf32b89	-0.11873538
23	0xbf9c20d4	-1.2197518
24	0x3e880524	0.26566422
25	0x3f5118b7	0.81678337
26	0x3dfc51b4	0.12320271
27	0xbfbd8dad	-1.4808861
28	0x3e4b8adf	0.19877194
29	0xbfa8d187	-1.3188943
30	0x3ea72866	0.3264801
31	0x3f010d14	0.5041058
32	0xbf0bc67e	-0.5459975
33	0xbea3fc36	-0.3202836
34	0xbc9c7109	-0.019096868
35	0xbfd43878	-1.6579733
36	0xbe41fb83	-0.189436
37	0xbf70b3f2	-0.94024575
38	0x3d38e8b3	0.045143794
39	0xbfdc95be	-1.7233198

fc1.bias f4 [20]
0	0xbed14a2f	-0.4087691
1	0xbedf20af	-0.43579623
2	0x3f4f4dff	0.8097839
3	0x3db8ff98	0.09033126
4	0x3d54f3f0	0.05199045
5	0x3e037d9a	0.12840882
6	0x3f29b273	0.66287917
7	0x3efaa245	0.48951927
8	0xbf8b8d2f	-1.0902461
9	0x3ded0c3a	0.11574598
10	0x3f2b08f7	0.66810554
11	0x3f2fdd8c	0.6869743
12	0x3eb566a6	0.35429877
13	0x3f024526	0.5088676
14	0xbee33813	-0.4437872
15	0x3ddc1043	0.10745289
16	0xbd8f67d6	-0.07002227
17	0x3d42e9a7	0.04758611
18	0x3e794f90	0.24346757
19	0x3f7a7540	0.9783516

bn1.weight f4 [20]
0	0x3d8e6ac6	0.06953959
1	0xbd73abb3	-0.059489917
2	0x3f650d4f	0.8947343
3	0x3da2ec7c	0.07955262
4	0x3fc740b7	1.5566624
5	0x3edda5db	0.432906
6	0x3f6b0b01	0.91813666
7	0xbc5b8849	-0.013399192
8	0x3f6ffea2	0.93747914
9	0x3f9e7ac0	1.238121
10	0xbf375c5a	-0.7162529
11	0x3f0c4703	0.54795855
12	0x3f321599	0.69564205
13	0x3eb73de2	0.357894
14	0x3f227059	0.6345268
15	0x3f735efd	0.95066816
16	0x3f3f7b94	0.7479794
17	0x3ef52e79	0.47887018
18	0xbc2e273b	-0.01062947
19	0xbd2bf74a	-0.04198388

bn1.bias f4 [20]
0	0xbf4a4b49	-0.79021126
1	0xbed6b8e4	-0.41937935
2	0xbfb057e8	-1.3776827
3	0xbefd3404	-0.49453747
4	0xbf47b282	-0.78006756
5	0xbf4d916b	-0.80300015
6	0xbf119979	-0.56874806
7	0xbedd1d11	-0.43186238
8	0xbec3028a	-0.38087875
9	0x3da9d075	0.08291713
10	0x3f4c40c8	0.7978635
11	0x3ecdc122	0.4018641
12	0xbe99683f	-0.29962346
13	0x3eb8078b	0.35943255
14	0x3f3bf6a4	0.7342322
15	0xbfbd448c	-1.4786544
16	0x3f39ce59	0.72580487
17	0x3e9dcda5	0.30820957
18	0xbe3f19f0	-0.18662238
19	0x3ec70ae3	0.38875493

bn1.running_mean f4 [20]
0	0xbef6f5a8	-0.48234296
1	0xbebc52d9	-0.36781958
2	0x3f5a5ca6	0.8529762
3	0xbc0c74d0	-0.008572772
4	0xbd0ac08f	-0.033875044
5	0x3e55e743	0.20889
6	0x3ed488bb	0.41510567
7	0x3eed593d	0.46357146
8	0xbf9919f1	-1.1961042
9	0x3e41393c	0.1886949
10	0x3f41f20a	0.7575995
11	0x3f3c7f11	0.7363139
12	0x3e7a3bd5	0.24436887
13	0x3eeb0b1f	0.45906922
14	0xbf064798	-0.52452993
15	0xbcd6e65d	-0.026232893
16	0x3e194b89	0.1497022
17	0x3d66e158	0.05636725
18	0x3ea488ff	0.3213577
19	0x3f75f771	0.9608069

bn1.running_var f4 [20]
0	0x3ad595bc	0.0016295235
1	0x3af1b52a	0.0018440832
2	0x3a161255	0.00057247776
3	0x3b410e46	0.002945797
4	0x3b23c0aa	0.0024986663
5	0x3aff6504	0.0019485061
6	0x3c96d9e1	0.01841444
7	0x39a51c03	0.00031492123
8	0x3b630ef4	0.0034646364
9	0x3af65731	0.0018794296
10	0x3b27e75f	0.0025620086
11	0x3a85b465	0.0010200856
12	0x3b7c4f76	0.003849951
13	0x3a8a04aa	0.0010529954
14	0x3b0f3196	0.0021849624
15	0x3bb30c8d	0.0054641427
16	0x3c70b1e5	0.014690851
17	0x3a049d83	0.00050588715
18	0x3b053206	0.0020324006
19	0x3a166f57	0.0005738637

fc2.weight f4 [10, 21]
0	0xbe842c81	-0.25815204
1	0xbefa6bcb	-0.48910365
2	0xbe6a6cd8	-0.22893083
3	0x3de77ec8	0.113034785
4	0xbec54408	-0.38528466
5	0xbddb58d9	-0.10710306
6	0xbe8b020a	-0.27149993
7	0xbf08bf22	-0.53416646
8	0xbf080154	-0.53127027
9	0xbebba1e0	-0.36646938
10	0x3f659209	0.89675957
11	0x3e51b305	0.20478447
12	0x3eb2c5cf	0.3491654
13	0x3ee229b7	0.4417245
14	0xbf306fe8	-0.68920755
15	0x3d80d820	0.062912226
16	0xbf312238	-0.6919284
17	0xbe7c424b	-0.24634664
18	0x3f4295f0	0.76010036
19	0xbf3cb91f	-0.7371997
20	0xbec64c8a	-0.3873027
21	0xbcfd3e72	-0.030913565
22	0x3f930047	1.148446
23	0xbe69c864	-0.22830349
24	0x3b7354ef	0.0037129482
25	0xbebba491	-0.36648992
26	0x3c5e467a	0.013566608
27	0x3f12e70d	0.57383806
28	0x3f858d10	1.0433674
29	0xbe6a6c01	-0.22892763
30	0x3dc5a201	0.096500404
31	0x3ef0b491	0.4701276
32	0x3daf5d08	0.08562666
33	0xbf018e5d	-0.50607854
34	0xbec0e492	-0.37674385
35	0x3d30f78a	0.04320482
36	0xbe1941ba	-0.14966479
37	0x3ca10208	0.019654289
38	0xbe711196	-0.23541865
39	0x3e0c7dcb	0.13719861
40	0xbdc5aeed	-0.09652505
41	0xbfd25624	-1.6432538
42	0x3e537e56	0.20653662
43	0x3f344d18	0.70430136
44	0xbe23f51e	-0.16011474
45	0x3e71bb5a	0.23606625
46	0x3e8a4085	0.2700235
47	0x3dc1d90b	0.09465226
48	0x3dbd93f2	0.09256734
49	0x3f105825	0.563845
50	0xbe9089a1	-0.28230003
51	0x3db36dad	0.08761153
52	0x3d8dc53f	0.06922387
53	0xbe8ea29d	-0.2785844
54	0xbdfce092	-0.12347521
55	0xbe918c64	-0.28427422
56	0xbed9a8ba	-0.4251154
57	0x3efab897	0.48968956
58	0x3c771806	0.015081411
59	0xbf208d5a	-0.62715685
60	0xbf1ae555	-0.6050618
61	0xbe171636	-0.14754567
62	0xbf223869	-0.63367325
63	0xbe2525f8	-0.16127765
64	0x3eda718c	0.42664754
65	0x3eef3302	0.46718603
66	0x3ebc1230	0.36732626
67	0x3da9522d	0.08267627
68	0x3e848a60	0.25886822
69	0x3eeec166	0.46631926
70	0x3d2a4385	0.041568298
71	0x3d93ad6b	0.07210811
72	0x3bce5aa7	0.0062974277
73	0xbf035cb0	-0.51313305
74	0xbdb1f64d	-0.08689556
75	0x3e9d88a5	0.30768314
76	0x3bd6faf9	0.00656068
77	0xbf720dc8	-0.9455228
78	0x3dceded3	0.10101094
79	0xbda34c9d	-0.07973597
80	0xbde9ad56	-0.11410014
81	0xbd588886	-0.052864574
82	0xbf26cd67	-0.6515717
83	0xbe2158d3	-0.1575654
84	0x3e5c4782	0.21511653
85	0x3ef46cda	0.47739297
86	0xbe9f48c6	-0.3111021
87	0xbe434a7d	-0.19071384
88	0xbed3ae52	-0.41343933
89	0x3f5198bd	0.81873685
90	0xbdaa86b4	-0.08326474
91	0xbe204805	-0.15652473
92	0x3e68ea1e	0.22745559
93	0xbf3f85b6	-0.748134
94	0x3e6c6f96	0.23089442
95	0x3e2539bf	0.1613531
96	0xbf0ac8dd	-0.54212743
97	0x3d7e43b6	0.062076293
98	0x3e148998	0.14505613
99	0xbd406a63	-0.04697646
100	0xbe0f54e2	-0.13997224
101	0x3ecd6f8b	0.40124163
102	0x3e1bdcca	0.15220943
103	0xbf6af71d	-0.91783315
104	0x3f719520	0.9436817
105	0x3eef9139	0.46790484
106	0x3dc9e441	0.09857989
107	0x3f88e865	1.0695921
108	0x3e1cea65	0.1532379
109	0x3f911024	1.1333051
110	0x3f34ec4b	0.70673054
111	0x3ef83f6f	0.48485896
112	0xbe2e66dc	-0.17031425
113	0x3f8df36f	1.1089915
114	0x3ea47f1d	0.3212823
115	0xbf8f1896	-1.1179378
116	0x3e72a6f4	0.236965
117	0x3f3ae54d	0.73006135
118	0xbdba846b	-0.09107288
119	0xbf37391f	-0.71571535
120	0x3fbd6d05	1.4798895
121	0x3f1a5092	0.6027919
122	0xbee4cc01	-0.44686893
123	0x3ea3950e	0.31949657
124	0xbd562e42	-0.05229021
125	0x3d88b650	0.06675398
126	0xbd8d6c15	-0.06905381
127	0x3f1d4d81	0.61446387
128	0x3e562061	0.20910789
129	0xbed7f877	-0.4218175
130	0x3e8c6670	0.27421904
131	0x3edee32c	0.43532693
132	0x3ea1b840	0.31585884
133	0x3e92ca50	0.28669977
134	0xbe1e1b88	-0.1544019
135	0x3f524114	0.8213055
136	0x3f1bb9fe	0.60830677
137	0xbda22b7f	-0.079184525
138	0xbeee81cc	-0.46583402
139	0xbfaada97	-1.3347958
140	0xbf445e21	-0.7670613
141	0xbf3450d1	-0.70435816
142	0xbe16e4b6	-0.14735684
143	0xbf9ae992	-1.210253
144	0xbe3c32cc	-0.18378752
145	0x3f171aca	0.5902525
146	0xbf4a53a6	-0.7903389
147	0x3eb41bfe	0.35177606
148	0xbe840902	-0.25788122
149	0xbe314a6c	-0.17313546
150	0x3f21c932	0.63197625
151	0xbe3eeaf1	-0.1864431
152	0x3c3dc05e	0.011581508
153	0xbe54528f	-0.20734619
154	0xbe3dd7c0	-0.18539333
155	0xbf0c47e7	-0.54797214
156	0xbee56261	-0.4480162
157	0x3f0dfd6e	0.5546483
158	0x3e592304	0.21204764
159	0x3f0aaa5e	0.5416621
160	0xbe26adf3	-0.16277294
161	0xbec49434	-0.3839432
162	0x3e7b83fa	0.24562064
163	0xbdf45154	-0.119295746
164	0xc000fd8a	-2.0154748
165	0xbe21777c	-0.15768236
166	0x3ec88ae9	0.3916848
167	0xbdaf3d36	-0.08556597
168	0x3d375faf	0.044768985
169	0x3ea746d7	0.32671234
170	0x3fb1b3c6	1.3882987
171	0xbf03a075	-0.51416713
172	0xbec25131	-0.3795257
173	0x3f60e5a6	0.87850416
174	0x3e88276b	0.26592574
175	0xbe052797	-0.13003384
176	0xbf074f9a	-0.5285584
177	0x3f37f5e4	0.71859574
178	0xbf04ee66	-0.5192627
179	0x3e6a3ea1	0.22875454
180	0x3e32389e	0.1740441
181	0xbe6950f4	-0.22784787
182	0xbfd5fb11	-1.6717244
183	0xbee2764a	-0.44230872
184	0x3efbdedb	0.49193463
185	0xbf7c39c5	-0.9852565
186	0x3d72ff82	0.059325702
187	0x3ec78279	0.3896673
188	0x3e6dc374	0.2321909
189	0x3ea320de	0.31861013
190	0x3e968755	0.29400125
191	0xbde37870	-0.11106956
192	0x3e2db801	0.16964723
193	0xbe79be06	-0.24388894
194	0x3e41ab57	0.18913017
195	0xbe1c4d83	-0.15263943
196	0x3e1a94fc	0.15095896
197	0xbe02317f	-0.12714194
198	0x3efec8fa	0.49762708
199	0x3d9c1393	0.07620921
200	0xbed490ee	-0.41516823
201	0x3e02bfec	0.12768525
202	0xbf41ac3d	-0.7565344
203	0xbe222812	-0.15835598
204	0x3f56462e	0.83700836
205	0x3e7c938a	0.24665657
206	0xbda7f586	-0.08201127
207	0xbc091736	-0.00836735
208	0x3e0aef27	0.13567792
209	0x3e915b0b	0.28389773

fc2.bias f4 [10]
0	0x3ec5206a	0.38501292
1	0xbf0d541f	-0.55206484
2	0xbf388447	-0.7207684
3	0xbef13aa2	-0.47115046
4	0x3e1487ed	0.14504977
5	0xbe83a1fe	-0.25709528
6	0xbe9c3ad2	-0.30513626
7	0xbeb0399c	-0.34418952
8	0xbf20c87a	-0.628059
9	0xbea8b4b5	-0.3295037

fc3.weight f4 [1, 10]
0	0x3cd43f79	0.025909172
1	0xbd2776e4	-0.040884867
2	0x3d8c2ec4	0.06844857
3	0x3d80d1c4	0.062900096
4	0xbd41ae75	-0.047285516
5	0x3f5e338b	0.867974
6	0xbdb211bd	-0.086947896
7	0xbbe0e669	-0.0068634045
8	0xbee9ca2e	-0.45662063
9	0xbc0ad0ea	-0.008472661
