OpenAI/MountainCarContinuous-v0/checkpoint_actor.pth (torch_old, 1808 bytes, 9 tensors)

fc1.weight f4 [5, 2]
0.112705536 -5.955482 -0.08869615 18.80483 -1.938729 9.411505 3.223504 -1.994706
0.74883693 -2.4114127
00000000: 29d2 e63d 4f93 bec0 54a6 b5bd 4b70 9641
00000010: 4628 f8bf 8695 1641 e44d 4e40 8752 ffbf
00000020: c7b3 3f3f 9654 1ac0

fc1.bias f4 [5]
-1.0784135 -0.6235565 -0.1319494 0.95073 1.6610001
00000000: 7409 8abf 66a1 1fbf be1d 07be 0b63 733f
00000010: a79b d43f

ln1.weight f4 [5]
2.1347387 -3.898795 2.1226726 3.4408891 3.1130662
00000000: 8f9f 0840 db85 79c0 ded9 0740 8737 5c40
00000010: 7a3c 4740

ln1.bias f4 [5]
-0.034112584 0.038700797 1.7031994 0.42627203 1.0676339
00000000: a3b9 0bbd ba84 1e3d 7002 da3f 5440 da3e
00000010: 3aa8 883f

fc2.weight f4 [5, 5]
1.8765532 0.3523039 -0.08275666 1.2603937 2.8122985 -4.3841867 -4.5092897 -0.10431444
1.7299242 -3.516854 1.5334736 0.111064605 2.2317145 0.41001844 -1.6838869 1.3865882
1.1065923 2.3142393 -0.15960358 -0.24895623 1.411359 0.38007638 -1.8376842 -3.5377915
0.026985088
00000000: e532 f03f 2d61 b43e 537c a9bd 9554 a13f
00000010: b3fc 3340 424b 8cc0 1a4c 90c0 cfa2 d5bd
00000020: 286e dd3f 2314 61c0 dd48 c43f d775 e33d
00000030: 69d4 0e40 f0ed d13e 9b89 d7bf b97b b13f
00000040: d1a4 8d3f 7f1c 1440 1f6f 23be 62ee 7ebe
00000050: 69a7 b43f 5f99 c23e 3c39 ebbf 2d6b 62c0
00000060: d50f dd3c

fc2.bias f4 [5]
0.5449622 -0.21062623 1.7123966 2.137641 -2.200882
00000000: a582 0b3f 67ae 57be d02f db3f 1ccf 0840
00000010: 40db 0cc0

ln2.weight f4 [5]
-1.0102015 0.7970999 0.18390037 0.28691295 -1.4248279
00000000: 484e 81bf bd0e 4c3f 6150 3c3e 41e6 923e
00000010: c360 b6bf

ln2.bias f4 [5]
0.65644866 -0.088586025 -0.6913943 -0.42055207 0.6952731
00000000: 050d 283f 976c b5bd 38ff 30bf 9a52 d7be
00000010: 6bfd 313f

fc3.weight f4 [1, 5]
0.6207855 -0.11252176 -0.0763121 0.29779515 0.75149125
00000000: cceb 1e3f cf71 e6bd 8549 9cbd 9b78 983e
00000010: bb61 403f
